Courses/Deep Learning With Pytorch/Weights/brest_cancer.pth (torch, 3942 bytes, 5 tensors)

dense0.weight f4 [8, 30]
0.16501828 0.060314175 0.50600713 0.1406011 -0.038562335 -0.13698919 -0.0006602655 0.121579535
-0.0017806963 0.17545398 0.056647234 0.053652428 -0.009248324 -0.011478221 -0.033486754 0.053916503
0.28182778 0.32756844 0.1479702 -0.4955105 0.086560704 -0.1524835 0.32011455 -0.16158414
-0.0012599578 -0.038763102 -0.07613004 0.083725125 -0.042797953 -0.4490413 0.061736036 -0.020170262
0.34045938 0.013590074 -0.16125046 0.006862442 -0.03380615 0.23744397 0.039160233 -0.20838672
-0.08842292 0.014716695 0.03549939 -0.12219495 -0.016579788 0.3214646 0.20999408 0.25235188
-0.37451896 -0.42356226 0.13983846 -0.06202938 0.31464678 -0.08841306 -0.07345322 -0.04913728
0.11874085 0.21584357 0.011175669 -0.3450613 0.047936525 0.15147619 0.15759525 0.03400825
0.027526608 0.12793328 -0.14699964 0.28377247 0.17381433 -0.3081003 0.08631654 0.057476226
-0.037879203 0.080486 -0.0021675618 0.2257606 0.37507254 0.04998317 -0.36934522 -0.33998436
0.0300263 -0.060244344 0.14542745 -0.05563166 -0.36841103 0.13163899 -0.088501446 0.2569773
-0.036245618 -0.21507055 0.023663107 0.07308156 0.101504624 0.024080856 -0.098553024 -0.0691707
0.029024074 0.26658696 0.34851837 0.3160585 0.1583293 -0.2054422 -0.0355023 -0.029391577
-0.0045702085 -0.024133865 -0.01964558 0.16716601 -0.00337048 -0.008403115 0.087795824 0.05471165
0.08639076 -0.035741217 0.13906717 0.11530261 -0.036116883 -0.053707983 0.35580033 3.7322287e-05
-0.20561239 -0.054742936 -0.4743779 -0.034118112 0.1427565 -0.07552836 0.09562722 -0.14541396
-0.07104198 0.043052085 0.070330545 0.0402902 0.01438922 0.09127267 0.034723435 -0.13475217
-0.2710676 -0.236628 -0.0044728615 0.5237938 -0.14595556 0.14685057 -0.24152789 0.18438317
-0.03451685 -0.05137958 -0.11605232 0.07298208 -0.04401842 0.5117002 0.004178185 -0.069922596
0.22331393 0.060967654 -0.35633904 -0.40624523 0.16202608 -0.18013544 -0.02375448 0.34599647
-0.009444459 -0.11718702 0.018396903 0.0643234 -0.010177842 -0.13380165 -0.10048315 0.06793091
0.5533397 -0.014565772 0.07321904 -0.19677654 0.10145131 -0.10416234 0.16665637 -0.0070358347
-0.040237676 -0.17988014 -0.16550358 -0.117980555 0.051976215 0.024302868 0.0482695 -0.02485379
0.010249551 -0.08785295 0.016852599 -0.01889513 0.2513105 0.038933747 -0.05756106 -0.016555086
-0.10741842 -0.14925566 -3.1905602e-06 0.0011074208 5.8793066e-06 0.0025319443 -0.01787988 2.088892e-07
-0.078222476 -0.04838086 -0.010792433 -0.026655173 -0.024993887 -0.033659637 0.18980236 -0.0041709635
-0.017404959 -0.026487198 0.015340819 -0.0055149063 -0.05471715 -0.05882869 0.0024713278 -0.1877287
-0.01611379 0.00021447317 0.24535985 -0.059505627 0.09670478 -0.0122374995 -0.013216923 -0.0982398
-0.00031061185 -0.016533239 -6.0942722e-05 -0.00027026617 0.0020953321 -0.0001985492 0.057741176 -0.028468769
-0.0038762477 -0.050421115 0.21533735 0.27868646 0.21932855 0.33991358 0.10341348 -0.002925565
00000000: 8dfa 283e ff0b 773d af89 013f bcf9 0f3e
00000010: 8af3 1dbd e546 0cbe ab15 2dba b1fe f83d
00000020: 4166 e9ba 35aa 333e ee06 683d a6c2 5b3d
00000030: 4886 17bc 260f 3cbc 6829 09bd 8dd7 5c3d
00000040: bb4b 903e 0db7 a73e 8085 173e 8db3 fdbe
00000050: bd46 b13d a224 1cbe 0ee6 a33e 5076 25be
00000060: 2b25 a5ba 0fc6 1ebd 11ea 9bbd 1478 ab3d
00000070: e84c 2fbd bee8 e5be edde 7c3d 1b3c a5bc
00000080: b150 ae3e e7a8 5e3c d71e 25be 56de e03b
00000090: 5178 0abd 8324 733e 7b66 203d 5463 55be
000000a0: 1317 b5bd 4b1e 713c cf67 113d 5941 fabd
000000b0: 56d2 87bc 0297 a43e b008 573e 4434 813e
000000c0: f3c0 bfbe 27dd d8be d031 0f3e 8512 7ebd
000000d0: 6219 a13e e811 b5bd a46e 96bd 2c44 49bd
000000e0: 672e f33d 1906 5d3e 271a 373c e0ab b0be
000000f0: 1759 443d 931c 1b3e a660 213e 3c4c 0b3d
00000100: 7b7f e13c f100 033e 1387 16be a04a 913e
00000110: 62fc 313e 53bf 9dbe bac6 b03d 316c 6b3d
00000120: 3927 1bbd d8d5 a43d a70d 0ebb c92d 673e
00000130: 8209 c03e 27bb 4c3d d11a bdbe 6e12 aebe
00000140: b7f9 f53c c6c2 76bd efea 143e 06de 63bd
00000150: 5fa0 bcbe 5fcc 063e 3f40 b5bd 8792 833e
00000160: 4976 14bd 743b 5cbe 22d9 c13c c9ab 953d
00000170: a8e1 cf3d 3745 c53c 2bd6 c9bd 5ea9 8dbd
00000180: e5c3 ed3c 167e 883e 0071 b23e 6bd2 a13e
00000190: 1321 223e 715f 52be dc6a 11bd 9bc6 f0bc
000001a0: b0c1 95bb 62b4 c5bc c4ef a0bc 912d 2b3e
000001b0: 45e3 5cbb 38ad 09bc 4cce b33d 5319 603d
000001c0: a4ed b03d 6265 12bd a067 0e3e c623 ec3d
000001d0: 4cef 13bd e7fc 5bbd 762b b63e 808a 1c38
000001e0: 0e8c 52be 213a 60bd a9e1 f2be 6fbf 0bbd
000001f0: c32e 123e 9dae 9abd 34d8 c33d 66e7 14be
00000200: 757e 91bd 6257 303d 7609 903d 5607 253d
00000210: c3c0 6b3c 2aed ba3d 293a 0e3d 79fc 09be
00000220: 5fc9 8abe 9c4e 72be 1591 92bb 5a17 063f
00000230: 6075 15be ff5f 163e 1653 77be f1ce 3c3e
00000240: 8a61 0dbd 6573 52bd d7ac edbd a177 953d
00000250: a94c 34bd c9fe 023f 28e9 883b 9433 8fbd
00000260: 68ac 643e 38b9 793d 1272 b6be 60ff cfbe
00000270: 2aea 253e 6d75 38be c198 c2bc 7326 b13e
00000280: efbc 1abc c0ff efbd 1ab5 963c fdbb 833d
00000290: f7c0 26bc 4d03 09be 1cca cdbd 5c1f 8b3d
000002a0: aca7 0d3f 47a5 6ebc ddf3 953d ca7f 49be
000002b0: b4c5 cf3d 1153 d5bd f8a7 2a3e dc8c e6bb
000002c0: 43d0 24bd 8032 38be c579 29be ca9f f1bd
000002d0: 03e5 543d cf16 c73c 3db6 453d 2d9a cbbc
000002e0: bced 273c 3fec b3bd 760e 8a3c f6c9 9abc
000002f0: c5ab 803e fe78 1f3d 25c5 6bbd 889e 87bc
00000300: 30fe dbbd 7ad6 18be 681d 56b6 e026 913a
00000310: dc46 c536 faee 253b d378 92bc 074b 6034
00000320: 1b33 a0bd 022b 46bd bfd2 30bc f35b dabc
00000330: fbbf ccbc b0de 09bd 8d5b 423e 94ac 88bb
00000340: d894 8ebc aefb d8bc 0f58 7b3c 63b6 b4bb
00000350: 171f 60bd 5af6 70bd 00f6 213b f43b 40be
00000360: 1101 84bc 34e4 6039 9d3f 7b3e 2cbc 73bd
00000370: 280d c63d cb7f 48bc cb8b 58bc f331 c9bd
00000380: 9ed9 a2b9 b770 87bc c09c 7fb8 83b2 8db9
00000390: d751 093b a531 50b9 0382 6c3d 5637 e9bc
000003a0: a508 7ebb 5f86 4ebd 6581 5c3e feaf 8e3e
000003b0: aa97 603e 2709 ae3e 72ca d33d d6ba 3fbb

dense0.bias f4 [8]
0.9439433 0.75188327 0.3074233 0.1901869 -0.92502713 0.58498406 0.005695998 -0.04689716
00000000: 45a6 713f 6c7b 403f 9666 9d3e 5bc0 423e
00000010: 94ce 6cbf 84c1 153f 7fa5 ba3b 3d17 40bd

dense1.weight f4 [8, 8]
0.0993702 0.05698508 0.12939544 0.11401395 -0.03537158 0.0896231 0.11580642 -0.12468912
-0.06954409 -0.024150226 -0.06386116 -0.018360937 0.18450932 -0.08144543 -0.0020854387 0.21774305
-0.14980014 -0.07031764 0.14805591 0.008642921 -0.033470135 0.07677057 0.14861546 0.016493661
-0.009204811 -0.014415393 -8.576736e-08 -0.004393037 -0.011036502 -0.014562495 -0.002512349 -6.165972e-39
0.02495302 -0.31991154 0.029161759 0.072775386 0.060539115 -0.13760674 0.016796475 -0.16234542
-0.2648531 0.05125109 -0.06194017 0.010471438 0.048902497 -0.043696653 0.017724188 0.089797296
0.09881334 0.082227096 0.02889098 0.19903733 -0.07048391 0.09578377 0.14538546 -0.18385063
-0.07410801 0.0118063465 0.04923383 0.004263036 -0.02542606 -0.043950196 -0.0078058033 -0.046183657
00000000: 9a82 cb3d 3069 693d 3d80 043e 2580 e93d
00000010: cae1 10bd 518c b73d eb2b ed3d 025d ffbd
00000020: 226d 8ebd b2d6 c5bc a4c9 82bd ad69 96bc
00000030: 03f0 3c3e ddcc a6bd dbab 08bb 09f8 5e3e
00000040: 3565 19be b202 90bd f89b 173e 0a9b 0d3c
00000050: fb17 09bd e339 9d3d a72e 183e b71d 873c
00000060: c7cf 16bc 8a2e 6cbc 1b2f b8b3 77f3 8fbb
00000070: 72d2 34bc 8897 6ebc 39a6 24bb 3924 4380
00000080: 476a cc3c 72cb a3be a4e4 ee3c 430b 953d
00000090: ddf7 773d c8e8 0cbe c398 893c e13d 26be
000000a0: d39a 87be aaec 513d fab4 7dbd 6590 2b3c
000000b0: fc4d 483d 43fb 32bd 5132 913c a5e7 b73d
000000c0: a65e ca3d ae66 a83d c7ac ec3c 71d0 4b3e
000000d0: de59 90bd 482a c43d eddf 143e 5743 3cbe
000000e0: f1c5 97bd 686f 413c 6aa9 493d f0b0 8b3b
000000f0: 504a d0bc 1f05 34bd d3c7 ffbb 132b 3dbd

dense1.bias f4 [8]
0.8038131 -1.0468237 -0.1314528 -0.0016557502 -0.38587445 0.061577428 1.0485803 -0.38483414
00000000: b2c6 4d3f 52fe 85bf 909b 06be c205 d9ba
00000010: 5691 c5be 9d38 7c3d e137 863f fb08 c5be

dense2.weight f4 [1, 8]
0.22760129 -0.2614545 0.20857488 -8.8132685e-05 -0.4237068 -0.42730507 0.15479536 -0.29247117
00000000: 5010 693e 5ddd 85be a794 553e e0d3 b8b8
00000010: 19f0 d8be bbc7 dabe ad82 1e3e c8be 95be
