Courses/Deep Learning With Pytorch/Weights/iris.pth (torch, 2922 bytes, 6 tensors)

0.weight f4 [8, 4]
0	0x3ed8b0c1	0.42322353
1	0x3f1650ff	0.5871734
2	0xbf18be6a	-0.5966555
3	0xbf48cd5e	-0.78438365
4	0x3ded9c51	0.116020806
5	0x3ec7928f	0.38979003
6	0x3df0ff38	0.11767429
7	0xbd99b699	-0.07505531
8	0xbb5241ca	-0.003208267
9	0xb949bceb	-0.00019239231
10	0xbae6ca74	-0.0017607943
11	0xb6d20e00	-6.2601175e-06
12	0x3ea58db2	0.32334667
13	0x39a07b61	0.00030609503
14	0x3f08cf26	0.53441083
15	0x3f147bbc	0.58001304
16	0x053a1016	8.7486325e-36
17	0xb8d5d3ee	-0.000101961065
18	0xb5026db8	-4.8588436e-07
19	0x8b72d4dc	-4.6767642e-32
20	0x3e1a48d1	0.1506684
21	0x3c96a158	0.018387482
22	0x3f74d51b	0.95637673
23	0x3f561371	0.83623415
24	0xb5a13c26	-1.201294e-06
25	0x8d65b06c	-7.0778433e-31
26	0xb9c5b523	-0.00037709725
27	0x34f1c86e	4.503558e-07
28	0x3e33e70b	0.17568605
29	0x3f149a93	0.5804836
30	0xbe916ac9	-0.28401783
31	0xbf5928e0	-0.84827995

0.bias f4 [8]
0	0x3ed36338	0.41286635
1	0x3e07e7ca	0.13272014
2	0xb33bad18	-4.3696758e-08
3	0x3e77900e	0.24176046
4	0x0ae7e253	2.2329625e-32
5	0xbe5ae699	-0.21377029
6	0xa35279f2	-1.1409946e-17
7	0x3ec1db78	0.37862754

3.weight f4 [8, 8]
0	0x3f3809f4	0.7189019
1	0xbd3859cf	-0.045007523
2	0x16094dcf	1.1091324e-25
3	0xbd9a38b0	-0.075303435
4	0x04802a16	3.0131305e-36
5	0x3d5808ce	0.05274277
6	0xab04cc44	-4.7179296e-13
7	0x3f8ee776	1.1164386
8	0x3e2dd2f1	0.16974999
9	0xbead943f	-0.33902165
10	0x0ea51c4c	4.070289e-30
11	0x3dc5c085	0.09655861
12	0xafd3e9a3	-3.8546685e-10
13	0xbe05d893	-0.13070898
14	0x2f817b05	2.3552374e-10
15	0xbee06e16	-0.4383399
16	0xbeaf76a4	-0.34270203
17	0xbe2ce585	-0.1688443
18	0xb0482dcd	-7.2824663e-10
19	0x3c4cec97	0.012507579
20	0x1b21b896	1.3377251e-22
21	0x3ee82c5b	0.4534634
22	0x8a1518dc	-7.1787646e-33
23	0xbf02e301	-0.5112763
24	0x3db8d0f6	0.09024231
25	0xbeaf5876	-0.34247178
26	0x17bf6726	1.2369124e-24
27	0xbddf9978	-0.10917944
28	0x1604d9a0	1.0731545e-25
29	0x3dbd9bda	0.09258242
30	0x0d2c19dd	5.3032724e-31
31	0x3d4c508c	0.049881503
32	0xbea80012	-0.32812554
33	0xbe720da3	-0.23638014
34	0x135f7984	2.8206469e-27
35	0xbc95c83c	-0.018283956
36	0x040218b2	1.5292766e-36
37	0x3f1388a9	0.576304
38	0x88bf6e52	-1.15213305e-33
39	0xbf058c32	-0.52167046
40	0xbea33a73	-0.3188053
41	0xbd80447a	-0.06263061
42	0x90ab27aa	-6.750872e-29
43	0x3f01e093	0.507333
44	0x85209393	-7.550269e-36
45	0xbedeb7f1	-0.4349971
46	0xabb40b3c	-1.2792887e-12
47	0xbe0d6efc	-0.13811868
48	0x3eb294f7	0.34879276
49	0xbe822750	-0.25420618
50	0x13579a62	2.7212932e-27
51	0x3db29353	0.08719506
52	0xb2424f6d	-1.13103455e-08
53	0xbd8f4b10	-0.06996739
54	0x04a51fb4	3.882043e-36
55	0x3ed6ddc4	0.4196607
56	0xbde71a2a	-0.11284287
57	0x3efcf970	0.49409056
58	0x1f52f347	4.4670464e-20
59	0xbe94c9fa	-0.29060346
60	0x8357cb74	-6.3416374e-37
61	0xbeababf2	-0.3352962
62	0x832255b4	-4.7705904e-37
63	0xbe21f2ea	-0.1581532

3.bias f4 [8]
0	0x3e57f3df	0.21089123
1	0xbe8b01f5	-0.2714993
2	0xbf06c462	-0.52643406
3	0x3e50bedf	0.20385312
4	0xbeeb50d7	-0.45960113
5	0xbea33d5d	-0.31882754
6	0xbcd97937	-0.026547058
7	0xbdc6ed26	-0.09713201

6.weight f4 [3, 8]
0	0x3ed7808e	0.42090267
1	0xbe2b1a04	-0.16709143
2	0xbf6979c1	-0.91201407
3	0xbe7c9890	-0.24667573
4	0xbf45051f	-0.7696094
5	0xbf4bd976	-0.79628694
6	0x3e4fdcd5	0.20299084
7	0xbf32651c	-0.6968553
8	0x3e2b7630	0.16744304
9	0xbea3eab8	-0.32015014
10	0x3e8e3bc3	0.2777997
11	0x3cd6f396	0.026239198
12	0x3e87342e	0.26406997
13	0x3dae2832	0.085037604
14	0xbe0dd7bc	-0.13851827
15	0xbe1c652b	-0.15272968
16	0xbe81b40d	-0.2533268
17	0x3c751b8a	0.014960179
18	0x3f075d9f	0.5287723
19	0xbe9079b9	-0.28217867
20	0x3ef0423d	0.46925536
21	0x3eaca0bb	0.33716378
22	0xbdf7f02b	-0.12106355
23	0x3d9516ba	0.072797254

6.bias f4 [3]
0	0x3ee05a11	0.43818715
1	0xbd52d624	-0.05147375
2	0xbf2e2f86	-0.68041265
